…
41408 events read in 1 files in dir /storage/9/abal/CASE/VAE_results/events/run_28332/WkkToWRadionToWWW_M3000_Mr170_RECO
Selected QCD events:  qcdSigMCOrigReco
%%%%%%%%%%%%%%%%%%%%
Injecting 18 signal events
%%%%%%%%%%%%%%%%%%%%
###################

training QR for quantile [0.15, 0.3, 0.5, 0.7, 0.9, 0.95, 0.99]
###################
Model: "model"
_________________________________________________________________
Layer (type)                 Output Shape              Param #   
=================================================================
input_1 (InputLayer)         [(None, 1)]               0         
_________________________________________________________________
Std_Normalize (StdNormalizat (None, 1)                 0         
_________________________________________________________________
dense (Dense)                (None, 10)                20        
_________________________________________________________________
dense_1 (Dense)              (None, 10)                110       
_________________________________________________________________
dense_2 (Dense)              (None, 10)                110       
_________________________________________________________________
dense_3 (Dense)              (None, 10)                110       
_________________________________________________________________
dense_4 (Dense)              (None, 10)                110       
_________________________________________________________________
dense_5 (Dense)              (None, 7)                 77        
=================================================================
Total params: 537
Trainable params: 537
Non-trainable params: 0
_________________________________________________________________
Epoch 1/800
3068/3068 - 7s - loss: 0.5504 - val_loss: 0.4918
Epoch 2/800
3068/3068 - 5s - loss: 0.4901 - val_loss: 0.4915
Epoch 3/800
3068/3068 - 6s - loss: 0.4899 - val_loss: 0.4908
Epoch 4/800
3068/3068 - 6s - loss: 0.4897 - val_loss: 0.4916
…
